dqn_maze.pth (torch, 21138 bytes, 6 tensors)

net.0.weight f4 [64, 2]
-0.36606064 -0.5659068 0.090594314 -0.023228802 -0.08453209 -0.24474241 0.03468144 -0.51900774
-0.49542475 -0.5087021 -1.3237367 0.41560456 0.044494808 0.68131346 -0.33483967 -0.34866056
0.41052818 -0.02080921 0.46173543 -0.2884283 -1.1604222 0.039166473 0.6476361 0.41610444
0.46519977 0.19678417 -1.2642857 0.51572305 0.41012493 -0.044510674 0.05401443 -0.5174527
-0.2831485 0.089506455 -0.5358171 -0.08829206 -0.6599576 0.8464914 -0.3558497 -0.406616
-0.07914896 0.08201935 -0.22846793 -0.14703278 0.16749907 0.22897698 -0.05849885 -0.42052212
-1.232963 0.40686807 0.29318243 0.5297898 0.35814342 0.61655307 0.10024214 -0.4402356
-0.18513983 0.19250934 -0.25049913 -0.2336655 0.45056814 -0.8743474 -0.17882547 0.08423687
0.3536346 -0.43483672 0.30058977 -1.1706319 0.13959557 -0.097574964 0.31236705 0.41539523
0.56372344 -0.6065267 -0.27133805 0.08568859 -0.6391778 -0.14243168 -1.0874829 0.041423872
0.23211674 0.8129998 0.4730534 0.07957063 -0.62914443 -0.08904952 0.3818764 -1.2171626
-0.24043158 0.018073142 -0.37525344 -0.7026969 0.6586328 0.3199648 -0.62571454 -0.014749975
-0.8687478 0.5057596 -0.46986037 -0.6718119 0.11978334 -0.26408926 -0.26236647 -0.66589093
-0.13326575 -0.16330317 0.5264652 0.74446535 -0.28598893 0.21085875 -0.17045367 -0.64428425
0.74564505 0.3953955 -0.45667383 -0.3834206 -1.3447795 0.42178187 -0.14566237 -0.25385958
0.28961337 -0.741425 0.43650055 0.41028658 0.44069207 -0.8811969 -0.26222664 0.32934445
00000000: 4d6c bbbe 45df 10bf 8389 b93d 544a bebc
00000010: 291f adbd c19d 7abe 200e 0e3d b1dd 04bf
00000020: 50a8 fdbe 4d3a 02bf 3470 a9bf 1fca d43e
00000030: 3040 363d 8f6a 2e3f 1b70 abbe a383 b2be
00000040: c030 d23e 1478 aabc 9668 ec3e e0ac 93be
00000050: b788 94bf 066d 203d 7bcb 253f a40b d53e
00000060: aa2e ee3e ca81 493e 1dd4 a1bf 6d06 043f
00000070: e5fb d13e d350 36bd 3c3e 5d3d c877 04bf
00000080: d7f8 90be 294f b73d 4f2b 09bf 78d2 b4bd
00000090: fbf2 28bf a9b3 583f ef31 b6be f92f d0be
000000a0: da18 a2bd c3f9 a73d 7ff3 69be c38f 16be
000000b0: e084 2b3e f178 6a3e 7d9c 6fbd ad4e d7be
000000c0: bbd1 9dbf 0351 d03e 021c 963e 4ea0 073f
000000d0: 935e b73e 6cd6 1d3f c04b cd3d 9066 e1be
000000e0: 4c95 3dbe 2b21 453e 6c41 80be 0246 6fbe
000000f0: deb0 e63e 3bd5 5fbf 061e 37be 6184 ac3d
00000100: 980f b53e eba2 debe e7e6 993e 44d7 95bf
00000110: 24f2 0e3e 62d5 c7bd 93ee 9f3e afae d43e
00000120: 2e50 103f 5545 1bbf d2ec 8abe 807d af3d
00000130: 28a1 23bf 9cd9 11be a432 8bbf 14ac 293d
00000140: 03b0 6d3e c120 503f 0e34 f23e edf5 a23d
00000150: 9c0f 21bf 985f b6bd 4e85 c33e fccb 9bbf
00000160: b233 76be 200e 943c 3821 c0be f2e3 33bf
00000170: 299c 283f 6dd2 a33e d42e 20bf e1a9 71bc
00000180: 4166 5ebf 7679 013f 8a91 f0be ddfb 2bbf
00000190: f850 f53d b536 87be e654 86be d477 2abf
000001a0: d176 08be f238 27be 6cc6 063f 4895 3e3f
000001b0: 246d 92be 5beb 573e 688b 2ebe d0ef 24bf
000001c0: 98e2 3e3f 4771 ca3e 27d1 e9be b44f c4be
000001d0: bc21 acbf cbf3 d73e 8428 15be e2f9 81be
000001e0: 3448 943e 07ce 3dbf 007d df3e 1511 d23e
000001f0: 64a2 e13e 1f96 61bf 9242 86be d69f a83e

net.0.bias f4 [64]
-0.6229296 1.0103277 1.2354178 -0.33777487 -0.007681191 -0.6076175 -0.553093 -0.55477977
1.1706797 0.37584248 0.85456103 -0.47672567 -0.20040095 -0.44130176 0.86131763 0.7127693
1.2413688 -0.17275983 0.5847075 -0.019174218 -0.33430016 1.3712634 0.97880536 0.7253092
-0.38977206 0.98526025 0.08716539 -0.5888459 0.99377495 -0.6748668 -0.6451566 0.47672686
0.3467853 0.07245209 0.98753375 0.9853018 0.47246107 -0.34848106 -0.65793186 0.7533319
-0.12170624 0.7911561 -0.33119053 -0.27327845 -0.22473702 -0.0925957 0.73692113 0.6212802
-0.28975397 -0.03578514 0.9837547 -0.20023417 1.0654904 -0.10665068 0.75200963 -0.048559844
-0.51285785 -0.3436181 -0.7163757 -0.28297326 0.5604758 0.97282785 -0.58334124 1.1598393
00000000: 5078 1fbf 6b52 813f 2c22 9e3f d4f0 acbe
00000010: 80b2 fbbb d28c 1bbf 8197 0dbf 0c06 0ebf
00000020: d5d8 953f 6d6e c03e 83c4 5a3f 6315 f4be
00000030: e835 4dbe 4ef2 e1be 507f 5c3f 0d78 363f
00000040: 2ce5 9e3f f4e7 30be 64af 153f 4013 9dbc
00000050: 6429 abbe 8f85 af3f fd92 7a3f ddad 393f
00000060: 3490 c7be 043a 7c3f c583 b23d 9bbe 16bf
00000070: 0968 7e3f 12c4 2cbf fc28 25bf 8b15 f43e
00000080: d88d b13e c361 943d 03cf 7c3f bd3c 7c3f
00000090: 6be6 f13e 1c6c b2be 396e 28bf 5cda 403f
000000a0: 1f41 f9bd 3589 4a3f ce91 a9be 27eb 8bbe
000000b0: 7621 66be d0a2 bdbd dda6 3c3f 380c 1f3f
000000c0: a25a 94be 7093 12bd 59d7 7b3f 300a 4dbe
000000d0: fd61 883f ac6b dabd b483 403f b0e6 46bd
000000e0: a74a 03bf b6ee afbe 6664 37bf dfe1 90be
000000f0: 587b 0f3f 3f0b 793f da55 15bf 9d75 943f

net.2.weight f4 [64, 64]
0.08428003 -0.12683225 -0.03584185 -0.07714908 -0.08660668 0.06638291 -0.11495609 0.08306372
-0.05886674 -0.02805365 0.044662915 -0.039525308 0.03940147 0.06422144 -0.046296343 0.09199473
0.083142884 -0.021080643 0.065700434 0.07820454 -0.05453078 -0.10002292 -0.02733285 -0.1397798
0.07575392 -0.11033742 0.0021353168 0.003372565 -0.1418581 0.027937785 0.118773386 -0.04063802
-0.11950879 0.08053398 0.023921765 0.061074995 -0.036010902 -0.0042626024 -0.06510775 0.10323919
-0.028063074 -0.014685899 -0.037936583 -0.03994499 0.010865778 -0.08238484 -0.06229903 -0.03730524
0.09012887 0.11048372 0.10248144 -0.08122264 0.105972394 0.041605975 -0.034587234 -0.011831045
-0.094395295 0.10352948 0.04660526 -0.030468732 -0.12181333 -0.01768877 0.05419627 0.021007592
0.08834629 0.2294878 0.22503364 0.11071077 0.10995856 0.2365392 -0.5207585 -0.07015753
0.2737267 0.18182592 -0.21826778 -0.037835244 -0.07655471 0.47229588 0.18202178 0.14363042
-1.2226541 0.072285146 -0.19814135 0.07114364 0.06958685 -1.2134875 0.00102898 0.050554857
0.4999992 -0.025975835 -0.09622306 0.08140673 0.03510653 0.005546361 0.11178311 -0.15153672
0.4107571 0.18182051 0.20912777 0.10492646 0.3555688 -0.40729082 -0.033636346 -0.1908174
-0.21194555 0.22313976 0.005442068 0.06789001 0.07803176 0.039570004 0.20150477 -0.022335207
0.13198718 -0.10857469 0.14198074 0.12084502 0.05254701 -0.26496407 -0.13526124 0.10275678
0.040697157 0.07195994 0.066185325 -0.036001742 0.23133548 0.20381871 0.05012017 0.10711844
0.0051698685 0.075582266 -0.07929304 -0.0046346486 -0.022867694 0.08646478 -0.12215091 0.004080087
-0.109129936 -0.049312443 -0.102312416 0.042164057 -0.10942873 0.11697976 0.033484057 0.0144354105
0.023488656 0.12432712 0.021492854 0.028573066 0.095809 -0.071793124 0.03830996 0.059775174
0.0032105744 -0.008229777 -0.122317776 -0.076896235 -0.0007094741 0.06853947 -0.027504832 -0.11624785
-0.041922733 -0.034997284 0.0031641275 -0.11358021 0.11052784 0.11155404 0.06716047 0.010871649
-0.10219896 -0.0041447133 -0.024913445 -0.0316644 0.05390191 0.026199237 -0.09358774 -0.007420182
0.07010934 0.1208943 0.024063185 0.084139645 0.11726533 -0.06817275 0.09948014 -0.076459005
-0.039389536 -0.021482453 -0.05675423 0.03685364 -0.07850511 -0.091882885 0.096561626 0.009261474
0.09680562 0.07796916 0.06942705 0.065058246 0.10171567 0.17166977 -0.5673613 0.11410549
0.029145185 0.17447777 -0.0906386 -0.14550205 -0.22433813 0.43985423 0.006267308 0.23741499
-1.2802062 -0.01757282 -0.03620704 -0.08891055 0.022861067 -1.1661525 0.0135072125 -0.034550536
0.2647968 -0.12888922 -0.11384953 -0.047274515 0.018604174 0.094472945 -0.014461556 0.054649346
0.37921292 0.17710103 0.146272 0.027938116 0.17396685 -0.2277812 -0.09550539 -0.013354415
-0.18332264 -0.10662242 0.042754218 0.18638758 -0.0060988665 0.056904137 0.05100935 -0.061154474
0.19074702 -0.11046328 0.05344487 0.031839266 0.15905702 -0.23639864 0.11659951 -0.08327848
-0.3166359 -0.006660357 0.18655066 -0.11565459 0.21877156 0.11733012 0.30121842 -0.025314648
00000000: 029b ac3d 50e0 01be e7ce 12bd 5600 9ebd
00000010: d85e b1bd c3f3 873d 196e ebbd 501d aa3d
00000020: 401e 71bd c5d0 e5bc 76f0 363d 4ae5 21bd
00000030: 7063 213d 8886 833d 3ca1 3dbd bc67 bc3d
00000040: d146 aa3d 50b1 acbc f38d 863d b429 a03d
00000050: ab5b 5fbd d1d8 ccbd 24e9 dfbc 7022 0fbe
00000060: df24 9b3d 96f8 e1bd acf0 0b3b 4006 5d3b
00000070: 4043 11be c8dd e43c 763f f33d 0d74 26bd
00000080: 06c1 f4bd 00ef a43d 94f7 c33c c629 7a3d
00000090: 2b80 13bd 4dad 8bbb 3657 85bd 126f d33d
000000a0: 88e4 e5bc 209d 70bc 6463 1bbd 5c9d 23bd
000000b0: 6006 323c 62b9 a8bd 452d 7fbd 61cd 18bd
000000c0: 7c95 b83d 4a45 e23d cae1 d13d 0e58 a6bd
000000d0: 0e08 d93d 076b 2a3d 58ab 0dbd 00d7 41bc
000000e0: 5252 c1bd 4407 d43d 28e5 3e3d 9099 f9bc
000000f0: 4479 f9bd 0ae8 90bc e8fc 5d3d 1d18 ac3c
00000100: e6ee b43d dafe 6a3e 386f 663e 54bc e23d
00000110: f431 e13d 5537 723e 6e50 05bf c0ae 8fbd
00000120: e825 8c3e 9330 3a3e 9781 5fbe 21f9 1abd
00000130: b7c8 9cbd c4d0 f13e eb63 3a3e da13 133e
00000140: ee7f 9cbf 3c0a 943d 91e5 4abe c2b3 913d
00000150: 8d83 8e3d 8f53 9bbf d7de 863a 9c12 4f3d
00000160: e5ff ff3e 46cb d4bc 9810 c5bd 92b8 a63d
00000170: ddcb 0f3d 40be b53b 8bee e43d 712c 1bbe
00000180: c14e d23e 282f 3a3e 9725 563e afe3 d63d
00000190: 1d0d b63e 6c88 d0be 44c6 09bd a365 43be
000001a0: 4108 59be c07e 643e 6053 b23b eb09 8b3d
000001b0: 1ecf 9f3d 2814 223d 4457 4e3e 53f8 b6bc
000001c0: a627 073e 685c debd 6663 113e 987d f73d
000001d0: 893b 573d 5fa9 87be ec81 0abe 2672 d23d
000001e0: 10b2 263d bc5f 933d 2c8c 873d 9076 13bd
000001f0: 35e3 6c3e dab5 503e cf4a 4d3d ea60 db3d
00000200: 0068 a93b e0ca 9a3d 6464 a2bd 40de 97bb
00000210: 0855 bbbc 7214 b13d 422a fabd 40b2 853b
00000220: 847f dfbd d8fb 49bd 2c89 d1bd 38b4 2c3d
00000230: 2c1c e0bd 1693 ef3d 9426 093d 8082 6c3c
00000240: 486b c03c 389f fe3d c811 b03c 1012 ea3c
00000250: 8237 c43d 4608 93bd e8ea 1c3d d0d6 743d
00000260: 8068 523b 30d6 06bc be81 fabd c67b 9dbd
00000270: 00fc 39ba 6c5e 8c3d d051 e1bc 5a13 eebd
00000280: 2cb7 2bbd 5059 0fbd 405d 4f3b be9c e8bd
00000290: 6c5c e23d 7276 e43d 6e8b 893d 001f 323c
000002a0: b04d d1bd 60d0 87bb 4817 ccbc 88b2 01bd
000002b0: 40c8 5c3d c89f d63c eeaa bfbd 0025 f3bb
000002c0: 7c95 8f3d 6e97 f73d 2820 c53c 6851 ac3d
000002d0: ce28 f03d 289e 8bbd 3ebc cb3d 8a96 9cbd
000002e0: ec56 21bd f8fb afbc 2077 68bd d8f3 163d
000002f0: 4ac7 a0bd 182d bcbd 1ac2 c53d 70bd 173c
00000300: 0642 c63d 4cae 9f3d c52f 8e3d 423d 853d
00000310: 4e50 d03d 33ca 2f3e 973e 11bf 24b0 e93d
00000320: e2c1 ee3c 4daa 323e bba0 b9bd 7dfe 14be
00000330: e5b8 65be 9334 e13e fd5d cd3b ea1c 733e
00000340: ccdd a3bf e0f4 8fbc d54d 14bd bc16 b6bd
00000350: 2247 bb3c 7c44 95bf 5b4d 5d3c dd84 0dbd
00000360: 7293 873e 89fb 03be f129 e9bd eca2 41bd
00000370: c867 983c 087b c13d 2af0 6cbc fed7 5f3d
00000380: 3228 c23e f959 353e 54c8 153e 7ade e43c
00000390: 5e24 323e 7a3f 69be 5498 c3bd 7acc 5abc
000003a0: eeb8 3bbe db5c dabd 0c1f 2f3d 63dc 3e3e
000003b0: 00d9 c7bb 5014 693d 2eef 503d 1d7d 7abd
000003c0: 3053 433e 923a e2bd 02e9 5a3d e469 023d
000003d0: d8df 223e 7c12 72be b9cb ee3d e88d aabd
000003e0: 1a1e a2be 203f dabb 2307 3f3e 50dc ecbd
000003f0: a705 603e c64a f03d 4d39 9a3e aa60 cfbc

net.2.bias f4 [64]
0.046377752 0.0951205 -0.10445751 0.0035028046 0.074800335 -0.035638634 0.11335978 -0.14541586
0.06158024 -0.00065249205 0.039751202 0.119424894 -0.05377063 0.08110029 0.011914938 1.1820015
-0.05773475 0.011311007 0.0040441556 -0.08782576 -0.030488735 0.003200145 0.1547834 -0.063243955
0.02301761 -0.14040461 -0.114581116 0.05274803 0.03345407 -0.06609688 0.16428852 0.25962475
0.35955924 -0.028774142 -0.12802055 -0.0073657716 -0.07414882 -0.051332373 0.1923734 0.010375344
0.9221621 0.020712376 0.13650924 0.027754571 0.065165244 0.071694516 0.005496219 -0.045910142
-0.12614493 0.03833237 0.030952414 0.029604265 0.04256821 -0.058722287 -0.08338375 0.014404419
0.054949597 -0.10964352 0.07993296 0.08819258 -0.04583502 0.016837649 0.08990483 0.004487127
00000000: 99f6 3d3d 89ce c23d d2ed d5bd 4f8f 653b
00000010: eb30 993d d1f9 11bd 2c29 e83d e5e7 14be
00000020: 903b 7c3d 000c 2bba 28d2 223d 0a95 f43d
00000030: 983e 5cbd e917 a63d df36 433c d34b 973f
00000040: 467b 6cbd cd51 393c d684 843b fedd b3bd
00000050: 83c3 f9bc 86b9 513b 8a7f 1e3e 0c86 81bd
00000060: 6d8f bc3c 3ac6 0fbe 81a9 eabd 510e 583d
00000070: 2307 093d cd5d 87bd 403b 283e 89ed 843e
00000080: 2618 b83e c0b7 ebbc d217 03be 925c f1bb
00000090: 56db 97bd e541 52bd 88fd 443e 59fd 293c
000000a0: d112 6c3f 00ad a93c 14c9 0b3e 8e5d e33c
000000b0: 5b75 853d 93d4 923d a019 b43b 460c 3cbd
000000c0: 232c 01be 6702 1d3d eb8f fd3c a584 f23c
000000d0: 015c 2e3d c886 70bd 19c5 aabd 8300 6c3c
000000e0: d412 613d c88c e0bd e4b3 a33d 509e b43d
000000f0: 80bd 3bbd 1cef 893c 0620 b83d c008 933b

net.4.weight f4 [4, 64]
-0.04495385 -0.4086014 -0.067654 -0.25328866 0.044076625 -0.018706841 -0.50159323 -0.6825121
1.54392 0.04736601 -0.078379914 -0.230786 0.01331228 -0.22502582 0.048209835 0.7920299
-0.03341559 -0.08429391 0.028279752 -0.032840732 0.009963576 0.0457637 -0.23029673 -0.047892526
-0.052213375 0.04837371 0.10672077 -0.26639888 -0.026173975 -0.52519864 -0.36459777 -0.24281676
0.5005046 -0.21520174 -0.14735274 -0.015215136 0.03535197 0.06933939 -0.48563412 -0.0929929
0.6795825 -0.11505166 -0.08241175 -0.08613011 0.058010925 -0.20366286 -0.09782004 -0.32720032
-0.37388554 0.0020811916 -0.052987862 -0.11667716 -0.31928992 -0.050603375 0.0018522313 0.08437656
-0.018300917 0.027274543 -0.04011914 -0.058924504 -0.2605207 -0.010397511 -0.34063283 -0.022661842
0.011491955 -0.18314804 -0.039751664 -0.24177596 -0.012792509 -0.04099345 -0.2308342 -0.24851206
-0.3797472 -0.08532283 0.106542096 0.24267921 -0.067952335 -0.19671531 0.08947781 0.83605635
0.018301977 -0.24447061 0.076958984 0.057304308 0.02581289 0.00018809018 -0.14276238 -0.11259961
0.09182723 0.021034505 0.10216115 0.28401062 -0.24075395 -0.12529372 0.32298204 0.49888867
0.45640254 -0.19188347 -0.32553533 -0.03360489 0.086364426 -0.10639071 -0.2700838 -0.42325863
0.55540127 -0.09395473 -0.38084996 -0.21283278 0.09032812 -0.42300323 -0.048859775 0.18727054
-0.45600432 0.012859312 -0.056084726 -0.18073015 -0.25872046 0.01324761 -0.036460683 0.09415715
-0.003915776 0.100539304 0.05811362 0.10354232 -0.42777032 -0.06974827 -0.22729218 -0.39274877
0.075758584 -0.03160295 -0.104859725 -0.095176086 0.04838538 -0.32552192 0.13313416 -0.5700669
-0.06092874 -0.07200554 0.056015 -0.11076408 -0.061688945 -0.32774335 0.015306261 0.8259041
0.08195195 -0.08140612 0.010365891 0.022603517 -0.03699259 -0.0772008 -0.06473015 0.08461721
0.047569547 0.034661073 0.024723921 0.23816994 -0.015079906 -0.044583492 0.32295364 0.026561001
0.49619663 -0.39068004 -0.037124503 -0.0027085275 -0.10095408 0.0131619675 0.10573539 -0.19762857
0.60242856 -0.019735456 -0.00026230473 -0.21495174 -0.037154377 -0.17681694 0.035408676 -0.02569784
-0.013683553 0.05337963 -0.3974352 0.025113022 -0.17859079 -0.114342906 0.102482654 0.0071696346
0.0016750046 0.06876598 0.08553249 0.11703409 -0.22327079 0.10675748 -0.22078323 -0.16021018
-0.10392428 -0.31519145 0.0044745803 -0.14732906 0.10626306 -0.3399784 0.5192618 0.014308822
-0.22576347 -0.08421391 0.07997686 -0.24981907 0.100808665 -0.123292394 0.0026116886 0.8416318
0.067618646 -0.26082924 -0.043442026 -0.056537222 0.10037064 -0.04922162 -0.2610427 0.025743678
0.04988182 -0.11556253 0.04823404 -0.037218697 -0.5024527 0.053461332 0.030428542 -0.3135992
0.638964 -0.12943786 -0.2594953 -0.0937749 -0.057361424 -0.012508095 0.0034486973 -0.15338637
0.5570579 -0.023303524 -0.29564548 -0.29298168 -0.0600506 -0.03351588 -0.023440152 0.08022959
0.3763192 -0.09831063 -0.33352327 -0.3296769 0.04492282 0.033314172 -0.14076407 -0.03990358
0.067408256 -0.053109627 0.0062794536 0.10620035 -0.06822429 -0.1071308 -0.09952699 -0.15344782
00000000: 8721 38bd 3434 d1be 2e8e 8abd 0daf 81be
00000010: b189 343d 173f 99bc 6a68 00bf 1db9 2ebf
00000020: 2c9f c53f dc02 423d a685 a0bd 2a53 6cbe
00000030: c01b 5a3c 2b6d 66be ad77 453d 79c2 4a3f
00000040: c9de 08bd 49a2 acbd f0aa e73c 0184 06bd
00000050: 443e 233c b872 3b3d e8d2 6bbe f42a 44bd
00000060: b1dd 55bd 8323 463d 6b90 da3d 6f65 88be
00000070: ce6a d6bc 6b73 06bf 8fac babe f5a4 78be
00000080: 1221 003f d85d 5cbe a3e3 16be e848 79bc
00000090: 3acd 103d cf01 8e3d 09a5 f8be 1073 bebd
000000a0: 1ef9 2d3f 34a0 ebbd 7ec7 a8bd fc64 b0bd
000000b0: dd9c 6d3d ff8c 50be e055 c8bd cd86 a7be
000000c0: ed6d bfbe 9a64 083b cd09 59bd 6ff4 eebd
000000d0: f879 a3be 7c45 4fbd 92c6 f23a 9ecd ac3d
000000e0: ceeb 95bc dd6e df3c f853 24bd d25a 71bd
000000f0: f862 85be 525a 2abc 6d67 aebe 54a5 b9bc
00000100: c148 3c3c 298b 3bbe a4d2 22bd 1e94 77be
00000110: ac97 51bc bfe8 27bd cd5f 6cbe f279 7ebe
00000120: 3a6e c2be bcbd aebd be32 da3d e680 783e
00000130: 982a 8bbd bd6f 49be 2440 b73d ca07 563f
00000140: 07ee 953c 8156 7abe ac9c 9d3d ecb7 6a3d
00000150: 8e75 d33c 133a 4539 4d30 12be a09a e6bd
00000160: ea0f bc3d 8e50 ac3c dd39 d13d d769 913e
00000170: 3488 76be ff4c 00be e75d a53e 566e ff3e
00000180: 98ad e93e 1a7d 44be 91ac a6be 48a5 09bd
00000190: d5df b03d 5fe3 d9bd 6d48 8abe 5bb5 d8be
000001a0: c72e 0e3f 566b c0bd c4fe c2be d6f0 59be
000001b0: f3fd b83d e193 d8be 3021 48bd d9c3 3f3e
000001c0: 6679 e9be ddaf 523c 19b9 65bd 5311 39be
000001d0: 0277 84be 810c 593c cc57 15bd 77d5 c03d
000001e0: e94f 80bb 8de7 cd3d 8c08 6e3d ff0d d43d
000001f0: b604 dbbe 2ed8 8ebd 48bf 68be 5e16 c9be
00000200: 5127 9b3d 1872 01bd b2c0 d6bd aeeb c2bd
00000210: c02f 463d cfaa a6be 5254 083e e8ef 11bf
00000220: 6a90 79bd a477 93bd fc6f 653d 47d8 e2bd
00000230: 8cad 7cbd facd a7be 1dc7 7a3c 736e 533f
00000240: 6dd6 a73d 40b8 a6bd b3d5 293c 032b b93c
00000250: 8b85 17bd 741b 9ebd 3e91 84bd ca4b ad3d
00000260: 49d8 423d c5f8 0d3d d289 ca3c d2e2 733e
00000270: b611 77bc 2e9d 36bd 2e5a a53e 7596 d93c
00000280: 7c0d fe3e 3707 c8be dd0f 18bd 8d81 31bb
00000290: 03c1 cebd 4ba5 573c cc8b d83d 255f 4abe
000002a0: c238 1a3f 40ac a1bc f285 89b9 4f1c 5cbe
000002b0: 302f 18bd 800f 35be b008 113d 4784 d2bc
000002c0: fb30 60bc 99a4 5a3d a07c cbbe d3b9 cd3c
000002d0: 81e0 36be 9d2c eabd 6de2 d13d 41ef ea3b
000002e0: d48b db3a 2ed5 8c3d a82b af3d 92af ef3d
000002f0: 19a1 64be aaa3 da3d 0015 62be 230e 24be
00000300: 41d6 d4bd c660 a1be 809f 923b 6edd 16be
00000310: 72a0 d93d a611 aebe 57ee 043f 8d6f 6a3c
00000320: 8a2e 67be 5878 acbd e8ca a33d 92d0 7fbe
00000330: c674 ce3d b980 fcbd dd28 2b3b 2f75 573f
00000340: a57b 8a3d 698b 85be 44f0 31bd 9393 67bd
00000350: 1f8f cd3d 9c9c 49bd 64a7 85be 68e4 d23c
00000360: e150 4c3d 0cac ecbd 0f91 453d a272 18bd
00000370: bda0 00bf 45fa 5a3d 4745 f93c 1390 a0be
00000380: 2593 233f 5c8b 04be 91dc 84be 0e0d c0bd
00000390: d0f3 6abd c1ee 4cbc 8a03 623b 5111 1dbe
000003a0: 599b 0e3f 08e7 bebc d85e 97be b201 96be
000003b0: 9ef7 75bd f347 09bd 9005 c0bc 694f a43d
000003c0: e9ac c03e 1557 c9bd 90c3 aabe 69cb a8be
000003d0: fe00 383d 7174 083d 7524 10be f071 23bd
000003e0: 570d 8a3d 7b89 59bd e0c3 cd3b 927f d93d
000003f0: 2db9 8bbd 6567 dbbd ced4 cbbd 6d21 1dbe

net.4.bias f4 [4]
0.4742367 0.4279986 0.45343843 0.109491296
00000000: 27cf f23e a222 db3e 1529 e83e f93c e03d
